Model: "functional"
┏━━━━━━━━━━━━━━━━━━━━━━━━━━━━━━━━━━━┳━━━━━━━━━━━━━━━━━━━━━━━━━━━┳━━━━━━━━━━━━━━━━┓
┃ Layer (type)                      ┃ Output Shape              ┃        Param # ┃
┡━━━━━━━━━━━━━━━━━━━━━━━━━━━━━━━━━━━╇━━━━━━━━━━━━━━━━━━━━━━━━━━━╇━━━━━━━━━━━━━━━━┩
│ input_layer (InputLayer)          │ (None, 256, 256, 3)       │              0 │
├───────────────────────────────────┼───────────────────────────┼────────────────┤
│ conv2d (Conv2D)                   │ (None, 128, 128, 64)      │          1,792 │
├───────────────────────────────────┼───────────────────────────┼────────────────┤
│ conv2d_1 (Conv2D)                 │ (None, 64, 64, 128)       │         73,856 │
├───────────────────────────────────┼───────────────────────────┼────────────────┤
│ conv2d_2 (Conv2D)                 │ (None, 32, 32, 256)       │        295,168 │
├───────────────────────────────────┼───────────────────────────┼────────────────┤
│ conv2d_transpose                  │ (None, 64, 64, 256)       │        590,080 │
│ (Conv2DTranspose)                 │                           │                │
├───────────────────────────────────┼───────────────────────────┼────────────────┤
│ conv2d_transpose_1                │ (None, 128, 128, 128)     │        295,040 │
│ (Conv2DTranspose)                 │                           │                │
├───────────────────────────────────┼───────────────────────────┼────────────────┤
│ conv2d_transpose_2                │ (None, 256, 256, 64)      │         73,792 │
│ (Conv2DTranspose)                 │                           │                │
├───────────────────────────────────┼───────────────────────────┼────────────────┤
│ conv2d_3 (Conv2D)                 │ (None, 256, 256, 3)       │          1,731 │
└───────────────────────────────────┴───────────────────────────┴────────────────┘
 Total params: 3,994,379 (15.24 MB)
 Trainable params: 1,331,459 (5.08 MB)
 Non-trainable params: 0 (0.00 B)
 Optimizer params: 2,662,920 (10.16 MB)

